model/test_model.pt (torch, 51101 bytes, 11 tensors)

l1.weight f4 [128, 4]
0	0x3db3b649	0.087750025
1	0xbe195873	-0.14975147
2	0x3e413b57	0.18870293
3	0x3e65b323	0.22431616
4	0xbec6fa3a	-0.38862783
5	0xbe6c79c0	-0.23093319
6	0x3ee5ff5c	0.44921386
7	0x3c839b80	0.01606536
8	0xbea5146f	-0.32242152
9	0xbe36e996	-0.17862543
10	0xbdac2716	-0.084058926
11	0xbc91b93f	-0.017788528
12	0x3d9f315d	0.07773087
13	0x3decaf12	0.115568295
14	0x3f947638	1.1598577
15	0xbee41fca	-0.44555503
16	0x3fc061c3	1.5029835
17	0xbeddd288	-0.43324685
18	0xc01d5a81	-2.458649
19	0x3e36e94a	0.1786243
20	0x3d4e5736	0.05037614
21	0x3933f56d	0.00017162198
22	0x3f02aa03	0.5104067
23	0xbda1199c	-0.07866213
24	0xbd1f34d8	-0.038868755
25	0xbd4d8292	-0.05017335
26	0x3f890a02	1.0706179
27	0x3f4e993c	0.8070257
28	0xbe887cac	-0.26657617
29	0xbedc390a	-0.43012267
30	0x3e36f810	0.17868066
31	0x3d9d42b8	0.07678741
32	0xbe33b099	-0.17547835
33	0xbe28e91d	-0.16495176
34	0xbefa76df	-0.48918816
35	0x3f38432a	0.71977484
36	0x3f1d8453	0.61530036
37	0x3bcd6433	0.006268048
38	0x3daa41e2	0.083133474
39	0x3e9f5ef8	0.31127143
40	0xbf26e1f0	-0.65188503
41	0x3e5e9773	0.21737461
42	0x3f592b23	0.84831446
43	0xbda40829	-0.08009369
44	0xbe2360c4	-0.15954882
45	0x3cc61054	0.024177708
46	0x3ecf9b3e	0.40548128
47	0xbcf630e6	-0.030052613
48	0xbe3c8768	-0.18411028
49	0xbd1bb158	-0.038010925
50	0xbfd6e4ad	-1.6788536
51	0x3fa0293d	1.2512585
52	0xbe37250c	-0.17885226
53	0xbecc65f8	-0.39921546
54	0xbdf38de8	-0.11892301
55	0xbef1eaa6	-0.47249335
56	0x3df7deec	0.12103066
57	0xbe23470a	-0.15945068
58	0x3ff09a95	1.8797175
59	0x3e2367cf	0.15957569
60	0xbbcc2080	-0.0062294602
61	0xbd3d7870	-0.046257436
62	0xbec13ca0	-0.37741566
63	0xbeceead4	-0.40413535
64	0xbe7502ed	-0.23926897
65	0x3dbdc4b1	0.092660315
66	0xbf2a1cd8	-0.6645026
67	0x3ed3d1eb	0.41371092
68	0xbfadf4a6	-1.3590286
69	0x3ac13c28	0.0014742659
70	0x3f8a8739	1.0822517
71	0x3bfe01b7	0.0077516693
72	0xbf033a08	-0.51260424
73	0xbbf5f6e5	-0.0075062388
74	0xbf71e6c9	-0.94492775
75	0x3f47d6cd	0.78062135
76	0x3f6b94b1	0.9202376
77	0xbeca4799	-0.3950775
78	0xc031ad9f	-2.776222
79	0xbf1e9afb	-0.6195523
80	0xbed8734e	-0.4227547
81	0xbeecf714	-0.46282256
82	0x3db589c0	0.08864164
83	0xbc570300	-0.013123274
84	0xbd9b4170	-0.075808406
85	0xbe45c1d8	-0.19312227
86	0x3dd76040	0.10516405
87	0xbd7a3490	-0.061085284
88	0x3ffd7011	1.9799825
89	0xbcc6cb09	-0.024266737
90	0xbd1ff3d5	-0.039050896
91	0xbcb6ab06	-0.022298347
92	0x3f8d607f	1.1045073
93	0xbd8e106c	-0.06936726
94	0xbef1682f	-0.47149798
95	0x3d1e0182	0.038575657
96	0xbedb212e	-0.42798752
97	0x3e108cf9	0.14116277
98	0x4044f446	3.0774093
99	0xbe186d91	-0.14885546
100	0xbe981cda	-0.29709512
101	0xbda7f198	-0.08200377
102	0x3ed95bde	0.42452902
103	0xbe874c98	-0.26425624
104	0xbf0245a0	-0.5088749
105	0xbf99762d	-1.1989189
106	0x3fe321ff	1.774475
107	0x3f9366fd	1.1515805
108	0xbe6863b6	-0.22694287
109	0x3e8c8f63	0.27453145
110	0xc08d7618	-4.4206657
111	0xbf8ed1cc	-1.1157775
112	0x3f58fc8a	0.84760344
113	0x3d0387e9	0.032112036
114	0x3d113977	0.035455193
115	0xbcc24ea9	-0.023719149
116	0x3e4a5ddc	0.19762367
117	0xbeff31ea	-0.4984277
118	0x3ea1451e	0.31498045
119	0xbe05ef98	-0.13079679
120	0x3f4c33b8	0.79766417
121	0xbcae295a	-0.021259952
122	0x3e6928d3	0.2276948
123	0x3d179338	0.037005633
124	0xbef9ed88	-0.48814034
125	0xbd887368	-0.06662637
126	0xbef2ed7c	-0.4744681
127	0xbe1e1c94	-0.15440589
128	0xc00110f3	-2.0166595
129	0x3e9a4faa	0.30138904
130	0x3d288005	0.041137714
131	0xbe302be5	-0.17204244
132	0x4017dc39	2.3728163
133	0xbb424e87	-0.0029648857
134	0x3c827af9	0.015927779
135	0x3b9fc3ac	0.004875621
136	0xbdbd3ff8	-0.09240717
137	0x3e12cddc	0.14336342
138	0x3f895e4c	1.0731902
139	0xbe1a4d7d	-0.15068622
140	0xbe81ee5a	-0.2537716
141	0x3db8705f	0.09005808
142	0xbe0c2475	-0.13685782
143	0x3f039a17	0.51407
144	0xbebec599	-0.3726013
145	0xbd326700	-0.04355526
146	0x3e1855ab	0.1487643
147	0xbe5adb79	-0.21372785
148	0xbf4a62b4	-0.7905686
149	0x3e8c7919	0.2743614
150	0x3f90cb54	1.1312051
151	0xbf151d8f	-0.5824823
152	0xbf8fc097	-1.1230649
153	0x3d3a87d2	0.045539685
154	0x402b28d4	2.674367
155	0xbc7f781f	-0.015592604
156	0xbe9c360d	-0.30509987
157	0xbe6aaf6d	-0.22918482
158	0x3d6f0b40	0.05836034
159	0x3f9dcb20	1.2327614
160	0x3fa56e07	1.2924203
161	0xbf793f23	-0.97361964
162	0xbfa80451	-1.3126317
163	0x3f0dacbd	0.553417
164	0x3fa5aef4	1.2944016
165	0xbf02bb6c	-0.51067233
166	0xbf1ed146	-0.62038076
167	0x3ef919a5	0.48652378
168	0xbfab3792	-1.3376334
169	0x3e4a79af	0.19772981
170	0x4035bdbf	2.8397062
171	0x3f2207e8	0.63293314
172	0xbd8d82c8	-0.0690971
173	0xbe689984	-0.22714812
174	0xbefbf91a	-0.49213487
175	0xbeea852a	-0.4580472
176	0xc0304c99	-2.7546751
177	0x3dcc5530	0.09977186
178	0x3de3a59d	0.111155726
179	0xbdc9288a	-0.09822185
180	0x3e9a046c	0.300815
181	0xbe975d2c	-0.29563272
182	0x3dce8c99	0.100854106
183	0xbd4321c8	-0.04763964
184	0xbeb518a4	-0.35370362
185	0xbeb05e6e	-0.34447044
186	0xbd163730	-0.036673725
187	0xbebe0d52	-0.37119538
188	0x3d8802f1	0.06641186
189	0xbce95a64	-0.028485484
190	0xc0a15632	-5.041772
191	0x3d7bc611	0.061468188
192	0xbe6d1703	-0.2315331
193	0xbd531300	-0.05153179
194	0x405f0b46	3.485063
195	0x3e9b80b3	0.30371627
196	0x3f845074	1.0337052
197	0xb9af25fc	-0.00033406902
198	0xbf18a481	-0.59626013
199	0xbd23d16f	-0.039994653
200	0xbf8e0bdb	-1.1097368
201	0x3c21ded0	0.009879783
202	0xbd0dd1a1	-0.034623746
203	0xbc2949b6	-0.010332515
204	0xbf885172	-1.0649855
205	0x3e956801	0.2918091
206	0xbf31569d	-0.69272786
207	0xbbf1bdcf	-0.0073773633
208	0xbf8d5774	-1.1042314
209	0x3d7c6ec6	0.06162908
210	0xbfb9027b	-1.4453882
211	0x3c684f5a	0.014179075
212	0xbd17d2b5	-0.03706618
213	0xbd9f9c30	-0.07793462
214	0xbefd2154	-0.4943949
215	0xbefde70a	-0.4959033
216	0xbeba24aa	-0.36356097
217	0xbe34cac8	-0.1765548
218	0x3eb1ee0e	0.34751934
219	0xbec13892	-0.37738472
220	0x3e96533f	0.29360387
221	0xbe02182d	-0.12704535
222	0x3fb819d2	1.438288
223	0x3e51c421	0.20484973
224	0x3f98b3e3	1.1929897
225	0xbe8160c3	-0.25269136
226	0x3f68396a	0.90712607
227	0x3e9785be	0.29594225
228	0xbf55356e	-0.8328465
229	0x3e3109f1	0.17288949
230	0xbf92542f	-1.1431941
231	0xbe8fd4fc	-0.28092182
232	0xbd18e3e7	-0.03732672
233	0xbd410d48	-0.047131807
234	0x3f8c9ede	1.0985982
235	0x3f4fdd0c	0.81196666
236	0xbfeb18d1	-1.8366948
237	0x3c329d90	0.010901824
238	0xc01ccac2	-2.4498754
239	0x3eb9be89	0.3627818
240	0xbef416b4	-0.4767357
241	0xbec1a562	-0.3782149
242	0x3d7e4ec0	0.06208682
243	0x3d2be100	0.041962624
244	0xbf2cbb0f	-0.6747293
245	0xbe39d7ff	-0.18148802
246	0x4067c730	3.6215324
247	0x3ef7580a	0.48309356
248	0xbf570617	-0.8399367
249	0x3eabee82	0.33580405
250	0x3e40c142	0.18823722
251	0xbe85734c	-0.26064527
252	0xbed6f07c	-0.4198035
253	0xbe4a9810	-0.1978457
254	0xbe9f2762	-0.31084734
255	0xbdce73f0	-0.10080707

l1.bias f4 [128]
0	0x401047ab	2.2543743
1	0x3ed8cdea	0.423446
2	0x40efc39f	7.4926295
3	0xc04ac648	-3.1683521
4	0xbfd688b0	-1.6760464
5	0xc0439b0d	-3.0563385
6	0x3f3cdd78	0.73775434
7	0x3e98eb6e	0.2986712
8	0x3ff86cf6	1.9408252
9	0xc10e0263	-8.875583
10	0xc0235918	-2.5523129
11	0xc03c1201	-2.9385989
12	0x3f9e3ba4	1.2361951
13	0x3ebd33fa	0.36953717
14	0x402adf8a	2.6698937
15	0x3e2b06f4	0.16701871
16	0xbf899744	-1.0749288
17	0x4072aa95	3.7916615
18	0xbfc386fd	-1.527557
19	0xc017dd15	-2.3728688
20	0xbe9a86d4	-0.3018099
21	0x3ed81622	0.42204386
22	0xc11246a6	-9.142248
23	0xc0d2bc76	-6.5855055
24	0xbfd905a2	-1.6954844
25	0x3ec135a8	0.3773625
26	0xc0811a26	-4.034442
27	0xc1368314	-11.4070015
28	0xc11bea84	-9.744755
29	0x3eef82a0	0.46779346
30	0xc10a8edb	-8.659877
31	0xbebdb208	-0.3704989
32	0x3e71c66c	0.23610848
33	0xc018071e	-2.3754344
34	0xc05a985d	-3.4155495
35	0xbfb99495	-1.4498469
36	0xbec90465	-0.39261165
37	0xbfd31302	-1.6490176
38	0xc00c6643	-2.1937416
39	0xbf0f5ec2	-0.56003964
40	0x3f7565c4	0.9585841
41	0xc0876d5e	-4.2321005
42	0x3ea266a4	0.31718934
43	0x3ef0c3e6	0.4702446
44	0x4037e6c5	2.87346
45	0xbe8e822c	-0.27833688
46	0xbcb4fec0	-0.02209413
47	0x407242ed	3.7853348
48	0xc03a3625	-2.9095547
49	0xc1025ba8	-8.147377
50	0x4045e4a0	3.0920792
51	0xc001b894	-2.0268908
52	0x3fb152df	1.3853415
53	0x3d7aad1f	0.061200257
54	0xbe7567a4	-0.23965317
55	0xc08270fd	-4.0762925
56	0xc123c535	-10.235646
57	0x40464a0e	3.09827
58	0x3f286ac0	0.6578789
59	0xc041b8ec	-3.0269117
60	0x3e9bb39e	0.30410475
61	0xc0aee2b4	-5.4651737
62	0xc0a25583	-5.0729384
63	0xbee60c8c	-0.44931448
64	0x3ffb2693	1.9621147
65	0xbfa5d265	-1.2954832
66	0x403a5aec	2.9117994
67	0xc0d69fe3	-6.7070174
68	0xbd8317f8	-0.06401056
69	0xc005ff2f	-2.0937002
70	0xc0fbfa05	-7.87427
71	0xbf212f5a	-0.6296288
72	0x40805a24	4.0110035
73	0xc008818a	-2.1329064
74	0x3ea8903c	0.32922542
75	0x3d96976b	0.073530994
76	0x3e360664	0.17775875
77	0xc06b5ff5	-3.6777318
78	0xc10b564a	-8.708567
79	0x40b5078e	5.657172
80	0x3e95ab3a	0.29232198
81	0xbf2d6fec	-0.67748904
82	0x3fab3abd	1.33773
83	0xc0819499	-4.0493894
84	0xbefcd6b0	-0.49382544
85	0xc0759a89	-3.837557
86	0xc0c6f320	-6.2171783
87	0x3e5eb8a8	0.21750128
88	0x405cc07f	3.449249
89	0x409a0f5e	4.814376
90	0x3dacbcd0	0.084344506
91	0xc01b4673	-2.4261749
92	0x3ff9515e	1.9477956
93	0xbd7b2020	-0.061309934
94	0xc09abfaa	-4.8358965
95	0xc06b20ff	-3.673889
96	0xc0252167	-2.5801637
97	0xbd9058a0	-0.07048154
98	0x3e42a09c	0.1900658
99	0xc05f6575	-3.4905674
100	0xc099b699	-4.8035398
101	0xbdae8280	-0.08520985
102	0x3ff912e8	1.9458895
103	0xbf7e0b9f	-0.9923648
104	0x3f566b50	0.83757496
105	0xbefbf056	-0.492068
106	0xbe90bd9a	-0.28269655
107	0xbec784ef	-0.38968608
108	0xbf24737b	-0.6423871
109	0xbece72a5	-0.40321842
110	0x3d6abc00	0.057308197
111	0x3f86c841	1.0529863
112	0x3dd8d15e	0.105868086
113	0x3f23c973	0.6397926
114	0x3bd6a000	0.006549835
115	0xbf4e72c8	-0.8064389
116	0xc0164568	-2.3479862
117	0x3fa8e635	1.3195254
118	0x3faa537c	1.3306727
119	0xbe1a7238	-0.15082633
120	0xc03444a3	-2.8166893
121	0xbe49ad38	-0.19694984
122	0xbe0aa788	-0.1354047
123	0xc0084145	-2.1289837
124	0xc038f870	-2.8901634
125	0xc0e20b02	-7.0638437
126	0xbd901c68	-0.07036668
127	0x3b1a4d00	0.002354443

l2.weight f4 [64, 128]
0	0xbd49344d	-0.049122144
1	0xbda0218b	-0.07818898
2	0xbc0ad11c	-0.008472707
3	0xbbe2beac	-0.0069197025
4	0x3c0a294c	0.0084326975
5	0xbd6fa54b	-0.058507245
6	0xbdc828ad	-0.09773383
7	0x3d6df782	0.05809737
8	0xbd6fcb20	-0.058543324
9	0xbd94f5b3	-0.07273426
10	0xbd8a7038	-0.06759685
11	0xbda0a5d3	-0.078441285
12	0xbd90c490	-0.07068741
13	0x3d834005	0.06408695
14	0x3d60f07e	0.05491685
15	0x398ac200	0.00026465952
16	0xbe037254	-0.12836581
17	0xbe0b13b3	-0.13581733
18	0xbd03c691	-0.03217179
19	0xbc1a2b8f	-0.009409799
20	0xbd74fad6	-0.05980953
21	0x3d08a33a	0.03335879
22	0x3be96d80	0.007123649
23	0x3cd3274b	0.025775572
24	0xbd8d4402	-0.06897737
25	0x3da80e47	0.08205848
26	0xbdb1f897	-0.08689993
27	0xbe0118ec	-0.12607163
28	0x3dabba83	0.08385184
29	0xbdab69fc	-0.08369824
30	0xbd2a982f	-0.04164904
31	0xbd95e690	-0.07319367
32	0xbd6a8b5b	-0.057261806
33	0xbd82ef40	-0.063932896
34	0xbdb566f6	-0.08857529
35	0xbdbd1054	-0.0923163
36	0xbda13b91	-0.078726895
37	0x3c72e4b9	0.01482504
38	0xbd676b10	-0.056498587
39	0xbde92a94	-0.11385074
40	0x3c0deb60	0.008662075
41	0xbd405f52	-0.046965905
42	0xbe121be0	-0.14268446
43	0x3cef1c68	0.02918835
44	0xbd1d6f39	-0.03843615
45	0xbb2385ce	-0.002495158
46	0xbb9e1db0	-0.0048253164
47	0xbe0c88c5	-0.13724048
48	0xbc886bed	-0.016653026
49	0x3d3ebeaa	0.04656855
50	0xbd8888bf	-0.06666707
51	0xbdb90c02	-0.090354934
52	0xbd98dc5b	-0.074639045
53	0x3c5cec71	0.013484106
54	0xbd950e32	-0.07278098
55	0x3b95c618	0.0045707338
56	0x3d1fa47a	0.038975216
57	0xbddadaf4	-0.10686293
58	0xbdd8e2f5	-0.105901636
59	0xbd0cd8a9	-0.03438631
60	0x3c6e4738	0.014543347
61	0xbdc13929	-0.094347306
62	0xbdf28361	-0.11841465
63	0xbc9da4e0	-0.019243658
64	0xbd0fd15d	-0.035111774
65	0xbe116705	-0.14199455
66	0xbd90f800	-0.07078552
67	0xbd9f163c	-0.07767913
68	0xbd338a0a	-0.043832816
69	0xbda8908f	-0.08230697
70	0x3c26fec0	0.010192573
71	0xbd932b61	-0.07186008
72	0xbcaefb6f	-0.021360127
73	0xbdd879ae	-0.105700836
74	0x3da0bf69	0.078490086
75	0xbd6fc94d	-0.058541585
76	0xbd2fd369	-0.042926226
77	0xbcd93917	-0.02651648
78	0xbd71fe2d	-0.05908029
79	0x3cec1444	0.028818257
80	0xbd1bcc94	-0.038036898
81	0xbd8f5a40	-0.06999636
82	0xbdc0f2d2	-0.09421314
83	0xbda1dff1	-0.079040416
84	0x3d9f3c63	0.0777519
85	0x3c9cf12f	0.019157974
86	0xbc3c15af	-0.011479779
87	0xbd5b2a81	-0.05350733
88	0xbdce26df	-0.10066008
89	0xbda36d35	-0.07979814
90	0x3d61234e	0.05496531
91	0xbd98b3f9	-0.07456202
92	0xbe0782f3	-0.13233547
93	0x3d09bc66	0.033626936
94	0xbc99cae7	-0.01877351
95	0xbc97022a	-0.01843365
96	0x3caacbcb	0.02084913
97	0x3c372c68	0.011180021
98	0xbd9fab73	-0.07796373
99	0xbd72e0c5	-0.05929639
100	0xbd2649a0	-0.040597558
101	0x3c6a9710	0.014318243
102	0xbbe8a700	-0.007099986
103	0xbdeded70	-0.11617553
104	0xbd6e00c2	-0.05810619
105	0xbe071ad1	-0.13193823
106	0xbd9563f7	-0.072944574
107	0xbdd88143	-0.1057153
108	0x3c5e6718	0.013574384
109	0x3c174595	0.009232898
110	0x3b335f20	0.0027369931
111	0xbe0117a8	-0.1260668
112	0xbd552194	-0.052033976
113	0xbc026360	-0.007958263
114	0xbd18c24c	-0.03729467
115	0xbdbc12ec	-0.091832966
116	0x3c4d3509	0.012524852
117	0xbb228853	-0.0024800494
118	0x3da395a3	0.07987525
119	0x3c71fbe8	0.014769532
120	0xbbbb412e	-0.005714557
121	0xbd06986d	-0.03286021
122	0x3acd4a40	0.0015662387
123	0xbd4c1907	-0.049828555
124	0xbdfd4db9	-0.1236834
125	0xbcb59e5d	-0.02217024
126	0x3d734572	0.0593924
127	0xbd368724	-0.044562474
128	0xbf1261c3	-0.5718042
129	0xbbaa0ce0	-0.005189523
130	0x3eb8b4f6	0.36075562
131	0x3ef98526	0.48734397
132	0x4011fbe6	2.2809997
133	0x3d3ff257	0.046861973
134	0x3e8b66f6	0.2722699
135	0x3da9bc8f	0.08287918
136	0xbf03bc70	-0.5145941
137	0x3f500a15	0.81265384
138	0x3f140d53	0.5783283
139	0x3e30a3fd	0.17250057
140	0xbdf4285a	-0.11921759
141	0xbd5a4813	-0.05329139
142	0xbf616824	-0.8804953
143	0x3d8e2c25	0.06942014
144	0x3ea28ad6	0.31746548
145	0x3fc0e395	1.5069453
146	0xbf4a6bdd	-0.79070836
147	0xbe754ad2	-0.23954323
148	0xbd81cd05	-0.063379325
149	0xbd144794	-0.036201075
150	0x408887a7	4.266559
151	0xc0379708	-2.8685932
152	0x3eb0d17e	0.3453483
153	0x3d4d1e96	0.050077997
154	0xbceb8bef	-0.028753249
155	0x40760f44	3.8446817
156	0x3fd1d703	1.6393741
157	0x3d24b32a	0.040209927
158	0x3f12818f	0.5722894
159	0xbdaa3258	-0.083103836
160	0x3ed331f5	0.41249052
161	0x3f14e83e	0.58166873
162	0x3f4d8ad2	0.8028995
163	0x3ec9a230	0.39381552
164	0x3de47160	0.11154437
165	0xbeb74174	-0.35792124
166	0xbea3371f	-0.31877992
167	0xbe438ba0	-0.19096231
168	0xc19f0f74	-19.882545
169	0x3e509fbd	0.20373435
170	0x3dc25693	0.09489169
171	0xbd4af21b	-0.049547296
172	0xbfc95703	-1.5729679
173	0x3cb3c280	0.02194333
174	0x3cfcdff0	0.0308685
175	0x400a39c5	2.159776
176	0xbf185e46	-0.5951885
177	0x3e3da578	0.18520153
178	0x3e83f157	0.25770065
179	0x3ebab658	0.36467242
180	0x3d8f1613	0.06986632
181	0x3dcad8fc	0.09904668
182	0x3cead170	0.02866432
183	0xbf228b33	-0.6349365
184	0x3f4a5475	0.7903512
185	0x3fda0d96	1.7035396
186	0x3eae1f61	0.34008315
187	0x3f05db2c	0.52287555
188	0x3cf4c0f4	0.029877163
189	0x3f300b56	0.687673
190	0xbea59a29	-0.32344177
191	0x3c40a0d8	0.011757098
192	0x3f00f70f	0.5037698
193	0x3f55c255	0.8349965
194	0x3db2819c	0.08716127
195	0xc02c6140	-2.6934357
196	0x3d3ada9e	0.045618646
197	0x3ea4380d	0.32074013
198	0xbf8815c6	-1.0631645
199	0x3fe0d79a	1.7565796
200	0xbfa63700	-1.2985535
201	0x3e45e2e6	0.19324836
202	0x3d23f362	0.04002703
203	0xc0830fe8	-4.0956917
204	0x3da069dd	0.07832692
205	0xbe3de181	-0.18543054
206	0xc019dfc6	-2.404283
207	0xc207193a	-33.774635
208	0x3ca2b3fc	0.019861214
209	0xbf02bd15	-0.51069766
210	0x3e0a0149	0.13477053
211	0xbfb7c008	-1.4355478
212	0xbd8ee986	-0.06978135
213	0x3f296c69	0.66181046
214	0x4006aa31	2.1041377
215	0xbd0e0c31	-0.034679595
216	0x3ebd7da0	0.37009907
217	0xbf36da11	-0.7142649
218	0x3bf3f790	0.0074452832
219	0x3e4954b7	0.19661222
220	0x3e39325c	0.18085617
221	0xbd99cd49	-0.07509858
222	0xc023287e	-2.5493464
223	0xbdda2549	-0.10651643
224	0x3f2c8e50	0.6740465
225	0xbc418df0	-0.011813626
226	0xbd3f2720	-0.046668172
227	0x3db4bc94	0.08825031
228	0xbf973034	-1.1811585
229	0x3d5c3776	0.05376383
230	0xbf471b8d	-0.77776414
231	0x3f2bc65f	0.67099565
232	0xbf1fff36	-0.62498796
233	0xbc6c6685	-0.014428739
234	0xbca9fa40	-0.020749211
235	0x3eb08595	0.34476915
236	0x3e0b6e0f	0.13616203
237	0x3dd8e774	0.10591021
238	0xbdb1a095	-0.08673207
239	0x3be4299e	0.006962969
240	0x3d59686d	0.053078104
241	0x3e1d0258	0.15332925
242	0x3d7b4322	0.06134332
243	0x3e78a7af	0.24282716
244	0x3ee143a4	0.43996918
245	0x3f0774aa	0.5291239
246	0x3ead5a3f	0.33857915
247	0x3d95967f	0.073040955
248	0x3e917e6f	0.28416774
249	0x3c2e7126	0.010647094
250	0x3d4a3a96	0.04937228
251	0x402baa32	2.682263
252	0x3e2218f1	0.15829827
253	0x3f8b8ec1	1.090294
254	0x3d64c9ba	0.055856444
255	0xbd709b19	-0.058741663

l2.bias f4 [64]
0	0xbe019495	-0.12654336
1	0x3f81a913	1.0129722
2	0xbe67c2ca	-0.226329
3	0xbb51b459	-0.0031998365
4	0xbc4c8c44	-0.012484614
5	0x3f5543c3	0.8330652
6	0xbeb74057	-0.35791275
7	0xbd6b3a40	-0.0574286
8	0xbea5510d	-0.322884
9	0xbd997623	-0.07493236
10	0xbe8fe90d	-0.2810749
11	0xbd8f9048	-0.07009941
12	0xbe8e4dc6	-0.2779371
13	0x3f498541	0.78718954
14	0xbd0a2cda	-0.03373418
15	0xbd4f8e10	-0.05067259
16	0xbea69b60	-0.32540417
17	0x3f6c0cab	0.9220683
18	0xbc542165	-0.012947415
19	0x3f71077a	0.94152033
20	0x3fcb38ec	1.5876746
21	0xbd8a4166	-0.06750755
22	0x3f64f9c4	0.8944361
23	0xbd9e7876	-0.0773782
24	0x3f6fb563	0.9363615
25	0x3f92d868	1.1472292
26	0xbe8d96c5	-0.2765409
27	0xbd960ad4	-0.07326284
28	0x3b256d0c	0.0025242
29	0xbd61b587	-0.05510476
30	0xbd37c5bf	-0.04486632
31	0x3f5924a4	0.84821534
32	0xbf442953	-0.76625556
33	0x3f929f0d	1.1454788
34	0xbea66393	-0.32497844
35	0xbd9db5b3	-0.07700672
36	0x3f67822a	0.9043299
37	0x3f50c9d3	0.8155796
38	0xbeaabfd5	-0.3334948
39	0x3c6273c6	0.013821548
40	0x3f99e743	1.20237
41	0x3ca21747	0.01978649
42	0xbd919800	-0.0710907
43	0xbec53f8b	-0.38525042
44	0xbdeae8c2	-0.11470176
45	0xbdcef9a8	-0.10106212
46	0xbdca615d	-0.09881852
47	0xbd067ea9	-0.032835636
48	0xbe0f3de5	-0.13988455
49	0x3f831271	1.0240003
50	0xbde2f896	-0.1108257
51	0x3b133629	0.0022462702
52	0xbe09506e	-0.13409588
53	0xbc94a2f6	-0.018144112
54	0x3f540a98	0.82828665
55	0x3b8708fa	0.004120943
56	0xbecb9f8e	-0.39770168
57	0x3f927522	1.1441996
58	0xbe8c1e36	-0.273668
59	0x3bb2acdb	0.005452735
60	0xbecf1f3e	-0.40453523
61	0xbec3fe20	-0.3827982
62	0xbe69449a	-0.22780076
63	0xbefb3c71	-0.4906955

l3.weight f4 [32, 64]
0	0xbdba283c	-0.09089705
1	0x3f9f353d	1.2438122
2	0xbe57321f	-0.21015213
3	0xbd5c051b	-0.053715806
4	0xbd3d1c55	-0.046169598
5	0x3bc4da97	0.0060075033
6	0x3e288e71	0.16460587
7	0x3d4042f8	0.046938866
8	0xbe98cf94	-0.2984587
9	0xbd5a1007	-0.05323794
10	0x3eada2e7	0.33913347
11	0xbd31b05d	-0.043381084
12	0xbea0681f	-0.31329438
13	0x3f54409d	0.8291109
14	0x3cb7830d	0.022401357
15	0x3e2c372f	0.16817926
16	0xbe986d23	-0.29770765
17	0x3f500a39	0.812656
18	0x3c93ab6c	0.018026076
19	0x3f27700c	0.65405345
20	0x3d32f9e9	0.043695364
21	0x3ca3897a	0.019963015
22	0xbcf61e44	-0.030043729
23	0xbd57acb5	-0.05265494
24	0x3f8f8600	1.1212769
25	0x3ea1af90	0.31579256
26	0x3e97ccdc	0.29648483
27	0xbd2c85d6	-0.042119823
28	0x3d960bfb	0.07326504
29	0x3e19e6e0	0.15029478
30	0x3c400503	0.011719945
31	0x3f7b0944	0.98061013
32	0xc0687b29	-3.632517
33	0x3eefaf19	0.46813276
34	0xbeaa2b1f	-0.33236024
35	0x3de44ee1	0.111478575
36	0x3f3b28fa	0.731094
37	0x3f803527	1.0016221
38	0x3e96ca04	0.29451
39	0xbb962c8c	-0.004582947
40	0x3edee8a6	0.43536872
41	0x3dde8448	0.108650744
42	0xbd6fe896	-0.05857142
43	0x3e4cd594	0.20003349
44	0x3e39fa1b	0.18161814
45	0x3cb14e7b	0.021643868
46	0x3d506943	0.050881635
47	0xbc3e86a2	-0.011628779
48	0x3e31f3b8	0.17378128
49	0x3f1b3c30	0.60638714
50	0xbc83b2d2	-0.01607648
51	0x3dc415aa	0.095744446
52	0xbd6ecf75	-0.058303315
53	0x3d7c6843	0.06162287
54	0x3f505d65	0.8139251
55	0x3d84201d	0.064514376
56	0xbecebdf4	-0.40379298
57	0x3e5af271	0.21381547
58	0x3e8b8975	0.2725331
59	0xbb6d5127	-0.00362117
60	0xbebbba40	-0.36665535
61	0xbe32e1d9	-0.17468967
62	0x3debbe60	0.115109205
63	0xbfc9990e	-1.5749834
64	0xbc665066	-0.014057254
65	0xbf8ef6bd	-1.1169049
66	0x3e633613	0.22188596
67	0x3cf342cf	0.029694943
68	0x3db106a1	0.086438425
69	0x3e14494f	0.1448109
70	0xbe8cf3d5	-0.2752978
71	0xbd574e0f	-0.052564677
72	0x3eee8014	0.4658209
73	0x3d34258e	0.043981127
74	0xbecf22dd	-0.40456286
75	0xbd982345	-0.07428602
76	0x3ee1b00f	0.44079635
77	0xbf2fd68c	-0.6868675
78	0xbd4b079e	-0.04956781
79	0xbdcb2ad6	-0.0992028
80	0x3e4c281a	0.19937173
81	0xbf2f8f1b	-0.68577737
82	0x3d522c04	0.051311508
83	0xbef09fbd	-0.4699687
84	0x3cbf3997	0.02334289
85	0xbe1b9221	-0.15192463
86	0x3cbd9595	0.023142615
87	0x3d0672a1	0.032824162
88	0xbf7a64aa	-0.9780985
89	0xbea0ab55	-0.31380716
90	0xbe86d24e	-0.26332325
91	0xbc8d1136	-0.01722012
92	0xbe337fe5	-0.17529257
93	0xbe3a919b	-0.18219607
94	0x3c78c6aa	0.015184084
95	0xbf4dd259	-0.8039909
96	0x406ca6a8	3.697672
97	0xbebaef3b	-0.36510643
98	0x3eb8980b	0.360535
99	0xbdd736ab	-0.10508474
100	0xbf39aa20	-0.72525215
101	0xbf440ce8	-0.76582193
102	0xbea57e60	-0.3232298
103	0xbe22e3c1	-0.15907194
104	0xbe5e040c	-0.21681231
105	0xbe37282c	-0.17886418
106	0xbd4eef8a	-0.05052141
107	0xbe46dc16	-0.19419894
108	0xbc7f9797	-0.015600107
109	0xbe4cf01b	-0.20013468
110	0xbdd6f6f9	-0.10496325
111	0x3e39d78f	0.18148635
112	0xbbe346bc	-0.0069359224
113	0xbf0d239f	-0.5513248
114	0xbca5c1c3	-0.020233994
115	0xbd98ef4b	-0.074675165
116	0xbe063c47	-0.13108931
117	0xbda9882f	-0.08277928
118	0xbf064e85	-0.5246356
119	0xbe27fc92	-0.16404942
120	0x3e74859b	0.23879091
121	0xbdd51bee	-0.10405718
122	0xbe3b7442	-0.18306068
123	0x3e097a36	0.13425526
124	0x3e87688f	0.2644696
125	0xbe5624fe	-0.20912549
126	0xbe133834	-0.14376909
127	0x3fd92a8c	1.6966109
128	0x3e244c95	0.16044839
129	0x3f7ddaa2	0.9916173
130	0xbe5ee8b9	-0.21768464
131	0xbdad4891	-0.084611066
132	0xbd69485e	-0.05695378
133	0xbe0be4e0	-0.13661528
134	0x3ea17637	0.31535503
135	0x3dc64151	0.09680427
136	0xbe8f33ff	-0.27969357
137	0xbc46e2fd	-0.012139079
138	0x3e322f81	0.17400934
139	0xbe2c5d2e	-0.1683242
140	0xbee084d8	-0.43851352
141	0x3f3284e5	0.6973403
142	0xbdff3b58	-0.12462491
143	0xbde30467	-0.11084824
144	0xbeb2f2ef	-0.3495097
145	0x3f1fd76d	0.6243809
146	0x3d84bdf7	0.064815454
147	0x3f1784c1	0.5918694
148	0xbdaf1b64	-0.08550146
149	0xbc8739e3	-0.016507095
150	0xbe1e6e80	-0.1547184
151	0x3dc31f6d	0.09527478
152	0x3f7544a3	0.95807856
153	0x3e9390bd	0.28821364
154	0x3ea051ef	0.3131251
155	0xbd549c92	-0.05190713
156	0xba4e424b	-0.0007868155
157	0xbe325097	-0.17413555
158	0xbb22693c	-0.0024781963
159	0x3f4199ba	0.75625193
160	0xc078daa0	-3.8883438
161	0x3e2d055c	0.16896576
162	0xbe7e2c68	-0.24821627
163	0xbc389831	-0.011266754
164	0x3f33e222	0.70266926
165	0x3f45d786	0.7728199
166	0x3e827bd5	0.254851
167	0x3a8b2a4e	0.0010617466
168	0x3e61f04c	0.22064322
169	0xbe2f486f	-0.17117475
170	0xbe129fd3	-0.1431878
171	0x3ec0c330	0.37648916
172	0x3dba1358	0.09085721
173	0xbbcb924b	-0.006212508
174	0xbd91d607	-0.071209006
175	0x3e32915c	0.17438263
176	0xbcd94657	-0.026522798
177	0x3ec89800	0.39178467
178	0xbe22707d	-0.15863223
179	0x3c99b1cb	0.018761536
180	0x3d81f12f	0.0634483
181	0x3dcd495d	0.100237586
182	0x3f381ca1	0.71918684
183	0xbdb78c63	-0.089623235
184	0xbec33a4d	-0.38130417
185	0x3e5df8df	0.21676968
186	0x3e0da78e	0.13833448
187	0x3e2f84c1	0.17140485
188	0xbe977c34	-0.29586947
189	0xc115f396	-9.371969
190	0x3e8ff42c	0.28115976
191	0xbfd1e244	-1.6397176
192	0x3c05ca2f	0.00816588
193	0x3f90aefb	1.13034
194	0xbe827341	-0.25478557
195	0xbbb74b1d	-0.005593671
196	0xbe3efbfc	-0.18650812
197	0xbd86ffe8	-0.06591779
198	0x3e422a31	0.18961407
199	0xbc6be82c	-0.014398616
200	0xbeb0ce0e	-0.34532207
201	0x3d0a9ee6	0.033842944
202	0x3e81655b	0.2527264
203	0x3d8a699b	0.06758424
204	0xbe8600cc	-0.26172483
205	0x3f4f96e2	0.81089604
206	0xbd2705ba	-0.040776946
207	0x3d6f6148	0.058442384
208	0xbeb4515f	-0.3521833
209	0x3f449fbc	0.76806235
210	0x3e2810c4	0.16412646
211	0x3ed6e39c	0.41970527
212	0x3df53d44	0.11974576
213	0xbd820c80	-0.063500404
214	0xbd987170	-0.074435115
215	0xbe2ad369	-0.16682209
216	0x3f64f05c	0.8942926
217	0x3e9ee521	0.31034186
218	0x3ea3bbc4	0.3197919
219	0x3e38dc1a	0.18052712
220	0xbcff884a	-0.031192917
221	0x3bf328aa	0.007420619
222	0x3dce7af5	0.10082046
223	0x3f2314ce	0.6370362
224	0xc0736111	-3.8027995
225	0x3e8b45d2	0.27201706
226	0xbed3c023	-0.41357526
227	0xbc8aaf68	-0.016929343
228	0x3f387e15	0.72067386
229	0x3f534301	0.82524115
230	0x3e9e5f14	0.30931914
231	0x3d83721f	0.06418251
232	0x3e4d882f	0.20071481
233	0x3b935a07	0.004496816
234	0xbd604002	-0.054748543
235	0x3e80c7b7	0.2515237
236	0xbba9b54c	-0.005179083
237	0x3d6ec49c	0.05829297
238	0x3e1c2717	0.15249287
239	0x3e212edb	0.1574053
240	0xbc9fe108	-0.019516483
241	0x3f0c5689	0.5481954
242	0x3de34acf	0.11098253
243	0xbd55e994	-0.05222471
244	0xbc18c3d2	-0.009324031
245	0x3df9fef7	0.12206834
246	0x3f0d140a	0.551087
247	0xbd2e2094	-0.042511538
248	0xbeaebae1	-0.34126952
249	0x3ea30f5e	0.31847662
250	0x3e459a51	0.19297148
251	0xbda5ea44	-0.08101323
252	0xbea86812	-0.328919
253	0xbe67bbd0	-0.22630239
254	0x3dd64f10	0.10464299
255	0xbfd2aec3	-1.6459583

l3.bias f4 [32]
0	0x3f9d986b	1.2312139
1	0xbf80b25d	-1.0054432
2	0x3f8e4de3	1.1117519
3	0x3f8213ba	1.016227
4	0xbf87dcaf	-1.0614222
5	0xbf9f3d28	-1.2440538
6	0xbf9cba87	-1.2244424
7	0x3f90805d	1.1289173
8	0x3f9c8077	1.2226704
9	0xbf96c890	-1.1779957
10	0xbf7e9c61	-0.99457365
11	0x3f9f8cb4	1.2464814
12	0x3fa82d41	1.313881
13	0x3fa5b9a4	1.2947278
14	0x3f9cb0e8	1.2241488
15	0xbfa1de09	-1.2645885
16	0x3f944fb5	1.1586825
17	0x3f960d5d	1.1722828
18	0x3fb1b307	1.388276
19	0xbf90e7e8	-1.1320772
20	0xbfa4ab4e	-1.2864778
21	0xbe121740	-0.14266682
22	0xbf9ba349	-1.2159206
23	0xc01abce6	-2.4177794
24	0xbf8a0366	-1.0782287
25	0xbf94893c	-1.1604381
26	0xbf9e0037	-1.2343816
27	0xbf88e98a	-1.069627
28	0xbf8c765a	-1.0973618
29	0xbf98b178	-1.1929159
30	0xbf8b1ced	-1.0868202
31	0xbf8ec6f0	-1.1154461

l4.weight f4 [16, 32]
0	0xbf5359ae	-0.82558715
1	0x3e833414	0.2562567
2	0xbf2d33bb	-0.6765706
3	0xbf09c212	-0.5381175
4	0x3ee5f59c	0.44913948
5	0x3f20050c	0.625077
6	0x3ed042a8	0.40675855
7	0xbf24d3c7	-0.64385647
8	0xbefab957	-0.48969528
9	0x3efe1ed4	0.49632895
10	0x3ee46749	0.4461005
11	0xbf5b9b74	-0.8578408
12	0xbf38bdf7	-0.72164863
13	0xbf1ce2fe	-0.6128386
14	0xbf14f3f8	-0.58184767
15	0x3f21bedd	0.6318186
16	0xbecd6600	-0.40116882
17	0xbf12911b	-0.57252663
18	0xbf4d8f5c	-0.80296874
19	0x3f10edd9	0.56612927
20	0x3f0c32fc	0.54765296
21	0xc0da05a9	-6.813191
22	0x3e8c9259	0.27455404
23	0x4058629d	3.3810189
24	0x3f04c6e0	0.5186596
25	0x3ef02033	0.46899566
26	0x3f501731	0.8128539
27	0x3f04b931	0.5184508
28	0x3ef46eef	0.47740886
29	0x3e9ec48b	0.31009325
30	0x3f0f3c0a	0.5595099
31	0x3f0570d2	0.52125275
32	0xbf22a8d0	-0.6353884
33	0x3f34b4b5	0.7058824
34	0xbf4442fd	-0.76664716
35	0xbf3f65fe	-0.74765
36	0x3efd2403	0.49441537
37	0x3f17c122	0.5927907
38	0x3ee9b56a	0.4564622
39	0xbf5aae27	-0.85421985
40	0xbf2a87c3	-0.66613406
41	0x3f2fed08	0.68721056
42	0x3f1e4446	0.61822927
43	0xbf48725e	-0.7829951
44	0xbf6ec1e4	-0.93264604
45	0xbf5be757	-0.8589987
46	0xbf29a1ac	-0.66262317
47	0x3f48490f	0.7823648
48	0xbf1dcbf9	-0.6163936
49	0xbf5bc625	-0.8584922
50	0xbf4343a2	-0.76275074
51	0x3eccc879	0.39996698
52	0x3f6fdbc1	0.9369469
53	0xc0cc09da	-6.3762026
54	0x3f0e479d	0.55578023
55	0x4096577c	4.6981792
56	0x3f0767ad	0.5289257
57	0x3ea24cb5	0.31699148
58	0x3f3720a8	0.71534204
59	0x3f4e3bb9	0.8055988
60	0x3f31acbc	0.69404197
61	0x3eda3994	0.42622054
62	0x3f399420	0.72491646
63	0x3ece15df	0.4025106
64	0x3f61715e	0.8806361
65	0xbf2735b3	-0.65316314
66	0x3f227302	0.6345674
67	0x3f2b0741	0.66807944
68	0xbf3edcd9	-0.74555737
69	0xbf05c5f3	-0.5225517
70	0xbf1ae0c5	-0.6049922
71	0x3f4b2d76	0.7936624
72	0x3f47dc1b	0.7807023
73	0xbf2c2ec0	-0.67258835
74	0xbf0657ae	-0.5247754
75	0x3f4bb374	0.795707
76	0x3f31ad9a	0.6940552
77	0x3f0ec648	0.55771303
78	0x3f2d304a	0.6765181
79	0xbf27c7a2	-0.6553899
80	0x3f3c9136	0.73659074
81	0x3f5c6885	0.86096984
82	0x3f137af7	0.57609504
83	0xbf02e421	-0.5112935
84	0xbf10e39a	-0.5659729
85	0x40d23ad9	6.5696836
86	0xbf227a9d	-0.63468343
87	0xc09dd432	-4.9321527
88	0xbf347e51	-0.70505244
89	0xbf4dea3d	-0.80435544
90	0xbef9035d	-0.48635378
91	0xbf03d759	-0.5150047
92	0xbf2e4c75	-0.68085414
93	0xbf2b872e	-0.6700314
94	0xbf4a5939	-0.7904239
95	0xbf46c43b	-0.77643174
96	0x3f30b391	0.69023997
97	0xbf3080e5	-0.6894668
98	0x3ee6249d	0.4494981
99	0x3f395bb1	0.72405535
100	0xbf1e54cb	-0.61848134
101	0xbf181182	-0.59401715
102	0xbf16c051	-0.588872
103	0x3f5c4124	0.86036897
104	0x3f4d9338	0.80302763
105	0xbf19fc40	-0.6015053
106	0xbf37fc6d	-0.71869546
107	0x3f6c8073	0.923835
108	0x3f67eeca	0.9059874
109	0x3f2d7c95	0.6776822
110	0x3f2784ed	0.65437204
111	0xbf529083	-0.8225176
112	0x3efc0518	0.49222636
113	0x3f502046	0.81299245
114	0x3f4b6504	0.7945101
115	0xbf1f77a8	-0.62291956
116	0xbf553a3a	-0.8329197
117	0x40d593e2	6.674302
118	0xbed58b36	-0.41707772
119	0xc09c9a13	-4.893808
120	0xbf3ea810	-0.74475193
121	0xbeecfa50	-0.46284723
122	0xbf437c51	-0.76361567
123	0xbf067e1f	-0.52536196
124	0xbf2dc68e	-0.67881095
125	0xbf38b033	-0.7214386
126	0xbf122f7d	-0.5710371
127	0xbf18e009	-0.5971685
128	0x3f5a75cb	0.8533599
129	0xbf29c12a	-0.6631037
130	0x3f21bf90	0.63182926
131	0x3f006630	0.50155926
132	0xbf340fb0	-0.7033644
133	0xbf59a252	-0.85013306
134	0xbecb31d1	-0.39686444
135	0x3f49eb29	0.7887445
136	0x3f2c4fff	0.67309564
137	0xbf35323f	-0.70779794
138	0xbf1c13db	-0.609678
139	0x3f389b84	0.721123
140	0x3f4c9541	0.79915243
141	0x3f4b6ff1	0.79467684
142	0x3f35e0e5	0.71046287
143	0xbf518cb1	-0.81855303
144	0x3f260fe3	0.6486799
145	0x3f467e6d	0.7753666
146	0x3f5e410c	0.86818004
147	0xbf4a7036	-0.7907747
148	0xbf65fa14	-0.89834714
149	0x40cc4afa	6.3841524
150	0xbf192936	-0.5982851
151	0xc0a3bfe4	-5.117174
152	0xbf5433e3	-0.8289167
153	0xbf06781e	-0.52527034
154	0xbf34605a	-0.7045952
155	0xbf2d6fef	-0.6774892
156	0xbf31aa16	-0.69400156
157	0xbf09b03a	-0.53784525
158	0xbf5065ab	-0.81405133
159	0xbf4828db	-0.7818734
160	0x3f54d7b5	0.8314164
161	0xbedadcfa	-0.42746717
162	0x3eeea6bf	0.46611592
163	0x3f1f6290	0.6225977
164	0xbf519d51	-0.8188067
165	0xbf4149de	-0.7550334
166	0xbf0ca085	-0.54932433
167	0x3f272b4b	0.65300435
168	0x3f000d36	0.5002016
169	0xbef341b8	-0.47511077
170	0xbf369339	-0.71318394
171	0x3f4a01d6	0.7890905
172	0x3f6150cd	0.8801392
173	0x3f5ecf2d	0.87034875
174	0x3f5635b0	0.8367567
175	0xbf3cfeec	-0.7382648
176	0x3f165258	0.58719397
177	0x3f2ff0a1	0.68726546
178	0x3f4fe850	0.81213856
179	0xbf1415d4	-0.5784581
180	0xbf5c0f64	-0.85960984
181	0x40d0eba5	6.528765
182	0xbee859f7	-0.45381138
183	0xc0a42d4f	-5.130531
184	0xbf19dd8f	-0.60103697
185	0xbf3ffae1	-0.74992186
186	0xbf4af97b	-0.79286927
187	0xbf33b3f8	-0.70196486
188	0xbf0eeeb9	-0.5583301
189	0xbf06b1ab	-0.5261485
190	0xbf2a60f8	-0.6655421
191	0xbf494450	-0.7861986
192	0x3f5c56f3	0.86070174
193	0xbed92a42	-0.42415053
194	0x3f3d720e	0.7400216
195	0x3f37a660	0.71738243
196	0xbf1a8112	-0.60353196
197	0xbf2691d4	-0.65066266
198	0xbf301e8e	-0.6879662
199	0x3f1d6a62	0.6149045
200	0x3f30b0fc	0.69020057
201	0xbf3b4e10	-0.7316599
202	0xbf39e261	-0.7261105
203	0x3f5275e4	0.82211137
204	0x3f6902b7	0.9101977
205	0x3f57f463	0.8435728
206	0x3f4df7ad	0.8045605
207	0xbf3e7a16	-0.7440504
208	0x3f1e0e27	0.61740345
209	0x3f611f10	0.8793802
210	0x3f3e479d	0.74328023
211	0xbec8e887	-0.39239904
212	0xbf4d9148	-0.80299807
213	0x40d39e89	6.6131024
214	0xbf249224	-0.6428549
215	0xc09b48ce	-4.8526373
216	0xbf4c64ec	-0.79841495
217	0xbf29b2dd	-0.6628855
218	0xbf52b77c	-0.82311225
219	0xbf0f7947	-0.5604443
220	0xbf2e768b	-0.6814963
221	0xbf1e9625	-0.6194785
222	0xbefe8d9c	-0.49717414
223	0xbf31b636	-0.69418657
224	0xbf49f890	-0.788949
225	0x3f32d210	0.6985178
226	0xbf0fbdb9	-0.5614887
227	0xbf1aab3c	-0.6041753
228	0x3f119a57	0.5687613
229	0x3f1d6281	0.6147843
230	0x3ec23fb1	0.37939218
231	0xbf6626f7	-0.89903206
232	0xbf30326e	-0.6882695
233	0x3f51813f	0.8183784
234	0x3f00a76a	0.50255454
235	0xbf1b80c7	-0.60743374
236	0xbf663e09	-0.8993841
237	0xbf233ec4	-0.6376765
238	0xbf558bfc	-0.83416724
239	0x3f444d53	0.7668049
240	0xbefe251b	-0.49637684
241	0xbf105a17	-0.56387466
242	0xbf6a28bc	-0.91468406
243	0x3e9a8367	0.30178377
244	0x3f4df64a	0.8045393
245	0xc0d3d0d5	-6.619242
246	0x3f082c2f	0.5319242
247	0x408d02b9	4.4065824
248	0x3ee449da	0.44587594
249	0x3eb9b23c	0.36268795
250	0x3f46f023	0.7771017
251	0x3efff59e	0.4999208
252	0x3f0bf8b6	0.5467638
253	0x3ec8dd40	0.392313
254	0x3f370aff	0.71501154
255	0x3ec70a66	0.3887512

l4.bias f4 [16]
0	0xbfae9647	-1.3639611
1	0xbfd6bb67	-1.6775941
2	0x3fc56e27	1.5424241
3	0x3fba2133	1.4541382
4	0x3fbdc58b	1.482591
5	0x3fb3d1ec	1.4048438
6	0x3fcd6761	1.6047174
7	0xbfb0663c	-1.37812
8	0xbfa1273f	-1.2590102
9	0xbfc287ef	-1.5197734
10	0xbef0882b	-0.46978888
11	0xbfbb421d	-1.4629551
12	0x3fbd5294	1.4790826
13	0xbfcd3335	-1.6031252
14	0xbfa4b493	-1.2867607
15	0x3fbee4b4	1.4913545

l5.weight f4 [8, 16]
0	0x3efc89eb	0.49323973
1	0xbea52478	-0.32254386
2	0xbf91152b	-1.1334585
3	0xbf969866	-1.1765258
4	0xbf544484	-0.82917047
5	0xbf9b6541	-1.2140275
6	0xbf976943	-1.1828998
7	0xbe9ff7c2	-0.31243712
8	0x3ea2b426	0.31778067
9	0x3d932952	0.071856156
10	0xc02307f6	-2.547361
11	0x3e2dfb4b	0.16990392
12	0xbf8d1295	-1.1021296
13	0x3e400421	0.18751575
14	0xbe09eeb1	-0.1346996
15	0xbf96e956	-1.1789958
16	0x3f4a18be	0.78944004
17	0xbea04e6f	-0.3130984
18	0xbf35098c	-0.7071769
19	0xbf97e1cf	-1.1865786
20	0xbf7c7bab	-0.986262
21	0xbf8e3198	-1.1108885
22	0xbf785eef	-0.9701986
23	0xbec5e110	-0.38648272
24	0x3ed54898	0.41656947
25	0x3e351106	0.17682275
26	0xc019497d	-2.3951104
27	0x3bd20443	0.0064091994
28	0xbf4d2435	-0.8013337
29	0x3e058f69	0.13042988
30	0xbdaf3021	-0.08554102
31	0xbf60a13f	-0.8774604
32	0xbf6f45c3	-0.9346582
33	0xbf96affc	-1.1772456
34	0x3f9b6212	1.2139304
35	0x3f963193	1.1733879
36	0x3f880579	1.062667
37	0x3f53af31	0.82689196
38	0x3f944a75	1.1585222
39	0xbf3feb54	-0.7496846
40	0xbf69cb4a	-0.9132582
41	0xbf9de857	-1.233653
42	0x402e5b45	2.7243207
43	0xbf949d45	-1.1610495
44	0x3f9d5d74	1.2294145
45	0xbf7d57c1	-0.98962027
46	0xbf8be901	-1.0930482
47	0x3f99b1b4	1.2007356
48	0xbf4bd0d1	-0.79615504
49	0xbf6794d9	-0.904615
50	0x3f4fb0c0	0.81129074
51	0x3f8b18ec	1.086698
52	0x3f6617c6	0.89880025
53	0x3f922d02	1.1419985
54	0x3f458f35	0.7717164
55	0xbf9407ae	-1.1564844
56	0xbf583e5e	-0.84470165
57	0xbf810c13	-1.008181
58	0x4029e3ac	2.654521
59	0xbf57345d	-0.84064275
60	0x3f462073	0.77393264
61	0xbf48aa43	-0.783848
62	0xbf5adefb	-0.8549649
63	0x3f8bfff1	1.0937482
64	0xbf387b83	-0.72063464
65	0xbf7a8dd5	-0.9787267
66	0x3f6ed9c2	0.9330102
67	0x3f833fae	1.0253808
68	0x3f95a7d4	1.1691842
69	0x3f594f48	0.848866
70	0x3f332a80	0.69986725
71	0xbf7198f6	-0.94374025
72	0xbf8285a9	-1.019704
73	0xbf956558	-1.1671553
74	0x40246da7	2.5691926
75	0xbf9ad328	-1.209569
76	0x3f726047	0.9467816
77	0xbf8043ee	-1.002073
78	0xbf5c6f51	-0.86107355
79	0x3f4f30da	0.80933917
80	0xbf86bc21	-1.0526162
81	0xbf5b620d	-0.8569649
82	0x3f8277da	1.0192826
83	0x3f50d514	0.8157513
84	0x3f9682c1	1.1758653
85	0x3f87540b	1.0572523
86	0x3f992eba	1.1967385
87	0xbf4440dc	-0.7666147
88	0xbf821e3d	-1.0165478
89	0xbf983cae	-1.1893518
90	0x401c0d54	2.4383135
91	0xbf829bba	-1.0203774
92	0x3f8f99cf	1.1218814
93	0xbf5380d6	-0.82618463
94	0xbf53d809	-0.8275152
95	0x3f9000d8	1.1250257
96	0xbf82d99d	-1.022266
97	0xbf791022	-0.9729024
98	0x3f8595dc	1.0436358
99	0x3f8cc606	1.0997932
100	0x3f717647	0.943211
101	0x3f8fae83	1.1225132
102	0x3f966e7d	1.1752468
103	0xbf969e6b	-1.1767095
104	0xbf817166	-1.0112731
105	0xbf938792	-1.1525748
106	0x401ef80a	2.483889
107	0xbf7a634e	-0.97807777
108	0x3f5b35a2	0.8562871
109	0xbf9b7caf	-1.2147425
110	0xbf8f871f	-1.1213111
111	0x3f840bd5	1.0316111
112	0x3ee5635d	0.4480237
113	0xbd38cacf	-0.04511529
114	0xbf981005	-1.1879889
115	0xbf8ee8c6	-1.1164787
116	0xbf361fb2	-0.71142113
117	0xbf89ce67	-1.0766114
118	0xbf991401	-1.195923
119	0xbe8b2a0b	-0.27180514
120	0x3f0b8a0c	0.5450752
121	0xbe02d706	-0.12777337
122	0xc020e3a5	-2.5138943
123	0xbdb78653	-0.08961167
124	0xbf64ed6b	-0.8942477
125	0x3d128926	0.035775326
126	0x3a033bde	0.00050061743
127	0xbf591db3	-0.8481094

l5.bias f4 [8]
0	0xc0050605	-2.0784924
1	0xbf917c34	-1.1366029
2	0x3fdaef79	1.7104331
3	0x3fc69e78	1.5517111
4	0x3fd3df50	1.6552525
5	0x3fd2417c	1.6426234
6	0x3fc76329	1.5577136
7	0xc0034567	-2.051111

l6.weight f4 [1, 8]
0	0xbfa175f2	-1.2614119
1	0xbfa38541	-1.2775041
2	0x3f9aeaee	1.2102945
3	0x3f8fdf5e	1.1240041
4	0x3fb24a18	1.3928862
5	0x3fb2f3a9	1.3980609
6	0x3fb8b13b	1.4429086
7	0xbfa379fa	-1.2771599
